adversarial-ai-example-notebooks/models/mnist_cnn_adversarial.pth (torch, 90472 bytes, 8 tensors)

conv1.weight f4 [10, 1, 5, 5]
00000000: 2ab0 2c3b 477c 663d b4ec 3a3d 8378 843d
00000010: 656d faba e612 cc3c 1350 c53d c8ed 1e3e
00000020: ff12 2a3d e003 a3bc 6eb7 5d3c 0105 f13d
00000030: 613b 423e f7e4 dd3d 6423 d2ba c5fb 08bd
00000040: 5d43 7e3c ed54 4d3e 0786 1c3e 30a7 a8bb
00000050: 6887 3bbd d226 11bd 100d 023e a00d 1f3e
00000060: 62dc e1bc e18d 1d3c b49a cb3a 486e fe3b
00000070: a598 56bb c645 0a3a dccb 8eba 1955 fdbb
00000080: 34fa 413a 8c92 9eba 0919 a3ba 64f4 763b
00000090: fee1 c33f db6e 85bb 7a3a ffb9 aa94 8abb
000000a0: 40a2 e8ba f821 973a 9ca0 833b f358 173b
000000b0: 70b5 64ba 9919 ae3b 6da9 273c b3ff 9e3b
000000c0: e62a 8dba 2013 17bb 132c 283c 57d8 173b
000000d0: 0684 81bd 6b67 02be 2e78 123e 3194 febb
000000e0: c8dd 883c 9b33 453d f2b5 f8be 08b3 733e
000000f0: 47af 253d 9fd7 3c3e d062 4f3e 2a6d 49bf
00000100: 4d23 423e 8e7a 87bd f7c9 b43d cadb 763e
00000110: a81a c5be 4f99 e23d 35f4 913d 6320 60bc
00000120: 0851 18be 7036 4bbd cc19 f53c 9ba7 96bb
00000130: 653a 2f3c 6abf 91bb 6906 2d3c 3e7e 013c
00000140: 4e8e 353c 8b48 9ebb b002 92bd 8b83 2abd
00000150: 9406 3bbc 35d4 c53b 5381 ccbb 100e 4bbe
00000160: 967f 77be 8f25 69bc 511f 873d a4f5 383e
00000170: 2b4d ec3d 4300 d8bd 1149 663c 0f17 713c
00000180: 9b8b 2a3e 091b 253f 646e 953c 4c1c 263b
00000190: 2953 2d3c ee64 1a3c a230 1dbd b6cd cc3c
000001a0: bcd2 08b8 b1f1 6cb9 762c 3f3d aed2 d3bd
000001b0: 927b 9439 617e 55bc c8c6 8cbc 6d9c 85be
000001c0: 97d8 76bf 1c52 94bb 19b7 1c3a 82a4 67be
000001d0: 1675 84bf bc34 01bf 3c8a be3d 65df 123c
000001e0: e683 0dbc 12bb 8b3c d7e5 14bd 3584 86bb
000001f0: 04a2 223b e671 3abc f2db 043d c777 b9bc
00000200: f458 05ba d835 fdbb b861 b4bc 9fac c3bb
00000210: ac39 bd3b 4eb4 7d3c d2f0 893d 6f7a 3fbd
00000220: c2f5 b9bd 6666 783d c7d7 123d 6cd5 133d
00000230: 666d 6bbd 40a8 ad3e d0db 073f 1704 27be
00000240: b78f 47bd 76d5 6bba a22d 3fbd 3183 00bf
00000250: e071 89be 56ce 5f3d 1acb 6b3a 9cac 5fbb
00000260: 9078 f03c 5145 5bbd ad0d 8fbd ce98 f2bc
00000270: e6be 79bc 4f1c 033d 4e99 efbc 1748 8cbd
00000280: 5909 83bd 6e2f b23c 7265 bc3d 60a1 fcbc
00000290: 854f 80bd c486 f23c 94ef 59bd b028 a83e
000002a0: 0f89 8d3f 5681 7b3a 0222 0c3d 9049 76bd
000002b0: f696 ffbd 61e2 88bd 604b ee3c 2393 b43d
000002c0: a42c b23e fab0 883d 939c a43d 41d5 c53c
000002d0: 0b94 423e 222b 343e f0e4 9dbd cf78 85bd
000002e0: 0b1c 2ebd 1947 f03d 71f9 56bd d69f a7be
000002f0: 330e 04be e6fe bd3b a3a6 dfbd e1ec 89be
00000300: de98 91be fdde 7f3d 4631 1a3d 191b 66bd
00000310: 1dea 04bd e113 7a3b 98e2 a43d 9c5c 433b
00000320: f56e 033c a644 4bbb 1f6d cdbb e94c d6bb
00000330: 8103 3fba 847c 033c beeb 213c 2904 523c
00000340: f6e3 813b 7a64 8f3b 4423 a83b 5ea2 a83b
00000350: b039 8c3a 0bc0 38bc e2dd 8ebb 6fbe 9cbb
00000360: 65bd 2540 a450 2ebc 6dee 47bb ab99 193c
00000370: 182e a1bb f8b1 c9bb fc9b 72bb a8ec b73b
00000380: 84ae 0c3a f7ce 40be 0b8d 0bbe e177 2d3e
00000390: d00e 023e 415c 113d 1eab 26be 2c44 04bc
000003a0: 0b9d 083f 91e3 313d 1566 34bd 4359 613d
000003b0: c684 2b3d 8d03 c93e 520a 82bd a8ca e1bd
000003c0: 0c3c cd3d f1ed 553d 634d c53d 1a21 34bd
000003d0: 79ff 23bd 667c a63d bf32 803d 029a bb3c
000003e0: 9640 ffbc 4ea6 f9bb
0.002635012 0.056270864 0.045635894 0.06468298 -0.0019106088 0.024911355 0.096344136 0.15520394
0.041522022 -0.019899309 0.013532503 0.117685325 0.18967964 0.10834687 -0.0016032276 -0.03344323
0.01551899 0.20051928 0.15285502 -0.0051468834 -0.04578343 -0.035437413 0.12700295 0.15532541
-0.027570907 0.009616346 0.0015533776 0.0077646114 -0.0032744792 0.0005274679 -0.0010894495 -0.0077310917
0.0007399649 -0.0012098118 -0.0012443374 0.003768229 1.5303342 -0.004072053 -0.0004868096 -0.004229148
-0.001774855 0.0011530509 0.004016949 0.002309379 -0.0008724546 0.00531311 0.010233265 0.004852259
-0.0010770231 -0.002305217 0.010264414 0.002316972 -0.063240096 -0.12734763 0.14303657 -0.0077691306
0.016707316 0.048144918 -0.48576313 0.23798764 0.04045036 0.18441628 0.20252538 -0.78682196
0.18958779 -0.06615172 0.08827584 0.2410728 -0.384969 0.110643975 0.07126657 -0.013679597
-0.14874661 -0.049612463 0.029919527 -0.004597617 0.010695075 -0.004447867 0.01056061 0.007903634
0.011081291 -0.004830425 -0.07129419 -0.041629355 -0.011415143 0.00603726 -0.0062410026 -0.19829583
-0.24169764 -0.014230146 0.0659777 0.18062454 0.11538156 -0.10546925 0.014055506 0.01471497
0.16654818 0.6449438 0.018241115 0.0025346456 0.010578909 0.009423478 -0.038376458 0.025000434
-3.262119e-05 -0.00022596751 0.04667326 -0.10342918 0.00028320827 -0.013030619 -0.01718463 -0.26095906
-0.9642424 -0.0045263898 0.00059782114 -0.22621349 -1.0348232 -0.5047109 0.0930371 0.008964394
-0.008637404 0.017056976 -0.036352005 -0.004105116 0.0024815807 -0.011379695 0.03243632 -0.022640122
-0.00050868024 -0.007727366 -0.022019252 -0.005971506 0.0057746973 0.0154848825 0.06735386 -0.04674762
-0.09080078 0.06064453 0.035850313 0.036092207 -0.057477377 0.33917427 0.5306978 -0.16310154
-0.04872104 -0.0008996347 -0.04667438 -0.5020018 -0.26844692 0.054640137 0.0008994803 -0.0034129983
0.029354364 -0.053532902 -0.0698503 -0.029613879 -0.015243268 0.03200942 -0.029247906 -0.068496875
-0.06398267 0.021751132 0.09199037 -0.030838668 -0.06265167 0.029605277 -0.053206995 0.32843542
1.1057452 0.00095941627 0.03421212 -0.06012875 -0.124799654 -0.06683803 0.029088676 0.088171266
0.34799683 0.066743806 0.08037677 0.024149539 0.19001786 0.17594579 -0.07709682 -0.06517183
-0.042507213 0.11732311 -0.05248398 -0.32739133 -0.12896042 0.0057982085 -0.10920455 -0.26938537
-0.2843694 0.062468518 0.037644647 -0.056178186 -0.03244983 0.0038158821 0.08051032 0.0029809838
0.00802206 -0.003101626 -0.0062691118 -0.00653993 -0.0007286594 0.008025292 0.0098828655 0.012818375
0.0039639426 0.0043759914 0.005131157 0.005146309 0.0010698345 -0.011276255 -0.0043599466 -0.0047834436
2.5896847 -0.010639343 -0.0030507103 0.009375016 -0.004918825 -0.0061552487 -0.0037019243 0.0056129284
0.0005366581 -0.18828951 -0.13628022 0.16940261 0.12700963 0.03548837 -0.16276214 -0.008072894
0.5336463 0.043429915 -0.044042666 0.055016767 0.04187467 0.39260522 -0.06349625 -0.11024982
0.10021219 0.05222887 0.09633901 -0.04397688 -0.04003856 0.08129196 0.06259679 0.022900585
-0.031158727 -0.007618702

conv1.bias f4 [10]
00000000: 22c5 84ba 5915 efbe 7502 14bd 630d 7eba
00000010: e93c 06bc 8e89 cbbb 52b8 d3be 55af 10bc
00000020: 265e 47bf f951 abbe
-0.0010129551 -0.46695974 -0.036135156 -0.0009691326 -0.008193233 -0.006211466 -0.41351563 -0.008830865
-0.77878034 -0.33460978

conv2.weight f4 [20, 10, 5, 5]
00000000: 7d29 313c 1613 6a3c 0b45 5fbc 8787 ffbc
00000010: 8a34 af3c f8c4 cf3d 6911 b83d d337 123d
00000020: aa00 2e3d c6d4 c53d 4deb b53d 988f ff3d
00000030: ad30 ae3d 6ae4 bf3c 10ff 9bbb 40dc 623a
00000040: f8c0 c93c 42ca fcbc cbed cbbd 1ce7 b0bd
00000050: 36a7 a33c 7c39 113d bf87 a33d ec44 89bc
00000060: e6db bd3b 8ef6 8fbd 1237 5fbd 167a 07bc
00000070: f834 c73b 5ee0 85bc 673d 243d 87cb a4bb
00000080: 20d2 113d d17f 643d 2595 4f3c 82c9 dbba
00000090: 6a55 63ba 0284 513d 38f1 aa3d 3f15 8d3d
000000a0: de2d 12bf d6dc a8be 248a d43d d82d 8ebb
000000b0: 4524 a6be 60b8 13bd 1f04 243c 7fbf 57bd
000000c0: eb22 013e 52a3 9d3c a440 b03d e00d d53d
000000d0: 7db6 293d 0c2c 143d 3739 32bd 8f24 923b
000000e0: 6ad7 c53c 2e74 f3bd 4181 99bd 9a39 d1bd
000000f0: 87b5 7cbc 1d24 c8bb 49bf fcbd 0078 f8bd
00000100: b14e b5bd 698c 633d 2d24 b3bb 0d54 b9bd
00000110: 141f 763b 8fa3 8a3d 8c79 4b3c 7292 08bb
00000120: 297a 08be f707 b2bd 5b70 95bd 481a f13c
00000130: 4279 87bb b7ef 1cbd 25bc 3bbc bf81 653d
00000140: a504 133e b407 a13d 553b 1c3c c819 283d
00000150: 3002 933d 516b fe3d 4215 273d d7a9 d03c
00000160: b231 afbd 2620 16bd b814 203e f640 f93d
00000170: 8c12 a83d cae0 0b3e 7ac7 123d 35fc f43d
00000180: ec1f bd3d d7bd 393e d6f0 793d f955 6c3d
00000190: 0682 c53d 5ddd 863d 7d3e a0bc 5688 66bc
000001a0: 2d32 033d affd ca3d 7678 003e 7f15 c2bd
000001b0: 2e54 92bd e23e 923d f4c7 043e a8c0 0c3e
000001c0: ad83 49bd 5d44 713d 6b23 99bd 647e e83c
000001d0: a856 b6bc c35b 11be fb8d 10bc fe3a 04be
000001e0: 27d0 df3d 11b0 c3bd d464 6dbc bf17 3c3c
000001f0: 86c3 233d c0e1 a13c 9b32 0c3d fd94 c5bc
00000200: 4909 e1bb fd0f 4cbc 34df f33c 3a25 093d
00000210: 35d0 143c 40fc 403d 95cb ce3c 2556 dc3d
00000220: fdc2 ad3d 2cdf 8cbc ba4c ce3d 4b99 553e
00000230: d55a 223d f9aa 3b3d 7e61 93bc 7ebf c83d
00000240: 8dd9 2c3d 5666 e73c 5541 f1bb 8199 14bd
00000250: a5eb efbc 4c19 72bc bec8 373c b254 f3bb
00000260: 8a0f 08bd f413 95bd 749e 243d be02 453d
00000270: 3409 27bc 4668 6fbc 32aa 85bc 9b48 973d
00000280: 3e82 4b3e ce02 af3d b3e4 d73c 8e3b b33d
00000290: e678 80bd 04cf 50bf 35fc cebf 7b2e c6bf
000002a0: 16ed 8c3d 4ef8 6f3c 8e8f 8cbd fa31 bbbb
000002b0: b614 073d 3493 84bb 1780 593d c517 133d
000002c0: 2870 8dbc 6252 c23c 99fa b93c 9f28 223d
000002d0: c932 563d b5de 28bc 7899 21bc b92f 2bbd
000002e0: 05c2 b3bc 7eb3 173d ed9a 0fbd ab6a dabc
000002f0: 5743 af3b 2bd1 c93d ee98 aa3b 3e06 8f3d
00000300: 180d c93c fbfa 063d 4104 3f3e 732f 47bc
00000310: 4f98 433d 8724 073d cab1 9abc e828 673d
00000320: ccf5 46b9 ad7b f0bb 6f23 f73c 2650 953d
00000330: 620f 7b3d 6f7a bd3c 4457 833c f3e1 433d
00000340: c6df 923d 5df9 603d ff3d 0dbe 9d67 393d
00000350: 7d9a 4b3e 77fb d63d 6d7a 21bd d26c 91be
00000360: caa0 dabf 352a 15c0 7b64 edbf 24c9 a2bd
00000370: 832b 8cbd 9565 f2bc 8f05 3e3e fd30 103e
00000380: b506 2e3d 47fa b13b 5422 873c 18a1 f93b
00000390: 956a 8e3b e056 483c 63ad 45bc ba61 503c
000003a0: 6fff aa3c 7b9d 9e3c f7b5 56bb b5c8 2abe
000003b0: cab7 6bbb d196 733c 8f5e 303d 5f23 913b
000003c0: 585b c8be 599d cdbd d517 bdbb 87de 53bd
000003d0: 2b09 32be 501c d5bc a063 3dbe a578 93be
000003e0: 5fdb 44be 6aed 473d 2c30 2a3d bc44 413d
000003f0: 88c2 b9bc 0201 1c3d 902f 0c3d 87a9 8e3d
0.010813114 0.014286777 -0.013627301 -0.031192554 0.021387357 0.10144991 0.08987696 0.03569777
0.042481102 0.09659724 0.08882771 0.1247856 0.08505378 0.023424346 -0.0047606304 0.00086540356
0.024628147 -0.030858163 -0.09957465 -0.086378306 0.019977193 0.035455212 0.07984876 -0.016756497
0.005794036 -0.070294484 -0.05449588 -0.008268854 0.0060793124 -0.016342338 0.04009762 -0.005029145
0.03560078 0.055785958 0.012669836 -0.0016768428 -0.00086720905 0.051151283 0.0834679 0.06888818
-0.5710124 -0.32980984 0.10377911 -0.004338961 -0.32449546 -0.036064506 0.010010748 -0.05267286
0.12610976 0.019242916 0.08606079 0.10403037 0.0414338 0.03617482 -0.043511596 0.0044599245
0.024150569 -0.11887394 -0.07495356 -0.10216065 -0.015424139 -0.0061078207 -0.12341172 -0.12132263
-0.088529 0.055553827 -0.005466959 -0.090492345 0.0037555145 0.067694776 0.012419116 -0.0020839241
-0.1332785 -0.086929254 -0.07296821 0.029431477 -0.004134328 -0.038314547 -0.011458431 0.05603194
0.1435724 0.078627974 0.00953563 0.041040212 0.071781516 0.12422813 0.040791757 0.025471611
-0.085544005 -0.036651753 0.15632904 0.121705934 0.082066625 0.13659969 0.035834767 0.11962167
0.09234604 0.18138824 0.061020695 0.057699177 0.09643941 0.065851904 -0.019561047 -0.014070591
0.032030273 0.099116676 0.12545952 -0.09476756 -0.07144962 0.071409 0.12966901 0.13745368
-0.04919784 0.058903087 -0.074774586 0.02838058 -0.022258118 -0.1419516 -0.008822913 -0.12913129
0.10928374 -0.095550664 -0.014489371 0.011480271 0.039981388 0.019760966 0.03422795 -0.024118895
-0.006867562 -0.012454984 0.029769517 0.033482768 0.009082844 0.047115564 0.02524356 0.10758618
0.08484457 -0.01719626 0.10073228 0.20859258 0.039637405 0.04581735 -0.017990824 0.09802149
0.04219966 0.02824704 -0.0073625245 -0.036279205 -0.029287169 -0.014776539 0.011217294 -0.007425868
-0.033217944 -0.072791964 0.040190175 0.04809832 -0.010195065 -0.014612263 -0.016316507 0.07386895
0.19873902 0.08545457 0.02635417 0.087515935 -0.062730595 -0.8156588 -1.6170717 -1.5482935
0.06881158 0.014646603 -0.068633184 -0.005712745 0.032978736 -0.0040458683 0.05310067 0.03591134
-0.017265394 0.023720924 0.022702502 0.03958952 0.052294526 -0.010307004 -0.00986325 -0.04179356
-0.021943102 0.03703641 -0.035059858 -0.026662191 0.0053486037 0.09854349 0.005206219 0.069836125
0.024542376 0.032954197 0.18653966 -0.012157309 0.047752675 0.03299382 -0.018883605 0.056435496
-0.00018974318 -0.007338962 0.030168263 0.07290678 0.061293967 0.02312967 0.016032822 0.047822904
0.07171588 0.05492531 -0.13793181 0.04526483 0.19883151 0.10497182 -0.039423395 -0.28403336
-1.7080319 -2.330701 -1.8546289 -0.07948521 -0.06844237 -0.029589454 0.18556808 0.14081188
0.042486865 0.0054314467 0.016495861 0.007618081 0.0043462017 0.012227744 -0.012065264 0.012718612
0.020873753 0.019362202 -0.0032762268 -0.16678126 -0.00359677 0.0148675 0.043058928 0.0044292654
-0.3913219 -0.10039777 -0.0057706633 -0.05172589 -0.1738631 -0.026014477 -0.18495035 -0.28802982
-0.19224308 0.0488104 0.041549847 0.04718469 -0.022675768 0.0380869 0.034225047 0.069659285

conv2.bias f4 [20]
00000000: c425 953e 1214 323f 068e 3e3e af85 413e
00000010: 64b4 6c3d 4e5c ae3e 17b6 d53e e545 b13e
00000020: a9d0 46be 32a2 983d 5a65 3cbe dd1d 8abe
00000030: 2e1b e0bd d9b6 bd3e 4c6b 0d3f efbc 2abc
00000040: ed0d 293e d189 143f 348b 743e c931 cc3e
0.29130375 0.69561875 0.18608865 0.18898652 0.05778922 0.34054798 0.41740486 0.34623638
-0.19415535 0.07452811 -0.18398038 -0.2697591 -0.10942684 0.37053564 0.5524185 -0.010421022
0.16509219 0.5802279 0.23881227 0.39881733

fc1.weight f4 [50, 320]
00000000: 61e2 073e 0a1d 00be e3ab cbbb 6cf0 25bd
00000010: 2d51 0d3e 461c 1d3e 6a68 783b c7c6 e3bd
00000020: d3a4 bf3e 145a 9f3e 37ca 193e f000 35be
00000030: c0f8 943d c872 00bb e843 febd f945 22bd
00000040: e423 29be 28b1 93be 34be 85bd 6769 1c3c
00000050: e41a 743d 9a63 d5be 03d4 80be 2934 d8bd
00000060: 3369 e43c e9f2 22bd 0962 653d 7522 173d
00000070: 2bcc 7d3e 52ff 7a3e 8ac6 473e b0c3 4bbc
00000080: 3109 16be 0577 80be f710 28be 4cf7 2e3e
00000090: 5280 7a3b fd5b 8dbd 7d07 18be ef5e fabc
000000a0: c9a2 71bc 31f0 b1bd 2917 84be 1cf4 ba3d
000000b0: 0ab3 dfbd 0d47 9bbd 6bd5 003d 2255 a73c
000000c0: d256 b2bd 524c 48be 8da3 fbbc ec8b 773d
000000d0: 6881 023c 0311 f93d f0c8 103e c50d d7bc
000000e0: 1b48 29be 9378 7c3c 14b9 803c 6c99 6fbd
000000f0: d3a2 f9bd 8e5a f0bd 89cf 0e3e d2e8 9c3b
00000100: 3c95 43bd 2038 18be eea9 233c d433 4fbd
00000110: e8e6 dcbc c2a5 34bd eb15 1c3e 4827 c63d
00000120: 7608 06be 86da a2bd 3983 0fbd 9956 30bd
00000130: dda7 b2bc 75ec 473e 5609 2e3e d5c7 513d
00000140: d5b8 053e a0ea 993d f34d 97bd 379c 8d3e
00000150: cedc d6bb 4562 81be f3a0 dabd 60e6 363e
00000160: 3791 c83d ef6a 073e 2c3a 3b3e 6eda 7a3d
00000170: 5948 b13d 2293 d53d ebe1 5c3d c5d3 cabc
00000180: 4a50 673d cc5b 63bd 83ae df3c 3aa4 1fbd
00000190: 7c4d 683d cff6 71bc f748 52be b0f4 733d
000001a0: b489 25be 482e 43be 9ceb a0bc fff7 f73b
000001b0: ee77 5b3e cccc 953e 7e43 7c3d 73bd bd3d
000001c0: 15fb c43d 619d 62bd 2da9 34bd 36b6 883d
000001d0: bac7 40be 70e0 92be 2eb2 a6bd efd5 2d3d
000001e0: 702d 4cbe 256f 22bd 83c1 7c3d 6851 ce3d
000001f0: cef1 f6bd a8cb 253e c006 0e3e 6731 8e3b
00000200: 2aba 6d3b bce0 20be eb59 ffbd 9fe9 83bd
00000210: f283 023e 2304 fe3c 6711 72bd 4d58 3bbc
00000220: 63fa adbd 490a bf3d 119c 043d 5b2d e9bc
00000230: be20 6bbe 252a e6bd ace8 b0bd ab76 8fbd
00000240: 83cb 47bd d6ed ddbd fc96 283d 0675 2fbc
00000250: 38e4 fa3c 9135 18be 9497 dcbd 1c73 433b
00000260: ab12 81bd 0bef 42be ec11 10be a872 9c3d
00000270: 6e6b 8dbd a092 02bd ce5f b53d 63b1 8e3d
00000280: 2161 5f3e 21b8 273c 807f eebd 76a2 33bd
00000290: b795 9d3d b82e 0a3b a5ed 963d b838 d9bc
000002a0: d2c2 043d 27da d0bd 2525 fe3c 7024 0b3c
000002b0: 702d 9fbe 83ea 4fbe 9c83 edbd 9fa3 7ebd
000002c0: ebe5 14be 9ff3 ecbc 0b8d f0bc 06fc a33b
000002d0: d7ed 16be 8337 9ebd d6a5 e2bc 5a0b a73d
000002e0: 63e5 42be 8852 24be ee78 49bd 8c75 133e
000002f0: 32da a8bd 04af 87bc 6040 763a f352 f23d
00000300: 39f0 20bc 3965 913c b72b 003e c35a 823d
00000310: 4860 423d d905 b7bd 730c 15bd 22e5 a23d
00000320: be26 14be 4e66 20be 97ad a73d a6aa 113e
00000330: 3fd8 a93b 1dd9 20be a649 1dbd 8ede 4abd
00000340: 829f 34bd 796f 9dbd 410c 0d3d 3b8c f5bd
00000350: d226 88bd 1bd8 15bd dfdf 7c3d 7f48 973d
00000360: 40a9 b73d aead 033e 2546 e43d ea15 67bd
00000370: 626d ecbd 2abe 123d 24b1 2c3e 7839 c13d
00000380: ae7f c03e 0684 763d a908 c3be 672a 9fbd
00000390: cdfb 0a3f e421 9f3d c0a1 283e 7978 36bd
000003a0: dcdc 9e3e f7ac 6a3e 031c b33e 3fff 423e
000003b0: 1a84 7e3d 5d5f 143e e4e3 c03e 4fba 28be
000003c0: 0c66 5f3d 03cc cd3c 3f72 063c eeb2 a53a
000003d0: 91fa 82bd c0bf 393d f97a b63d e96b 2e3d
000003e0: 9cd7 c63d 4152 4c3c 2b50 f4bd c475 29be
000003f0: 630d c0bd 7096 813d 6edc 9f3d 7ff0 86bd
0.1326995 -0.12511078 -0.006215559 -0.040512487 0.13800497 0.15342817 0.0037904033 -0.11121898
0.37430438 0.31123412 0.15018545 -0.17676139 0.07274008 -0.0019599665 -0.12415296 -0.039617512
-0.16517597 -0.28846097 -0.06530419 0.009546614 0.059595957 -0.41677552 -0.25161752 -0.10556824
0.027882194 -0.03978244 0.056001697 0.036898095 0.24784915 0.2451146 0.1950933 -0.012436792
-0.14651944 -0.25090805 -0.16412722 0.17086524 0.0038223458 -0.06902311 -0.14846607 -0.030562846
-0.014748284 -0.08688391 -0.2579892 0.091285914 -0.10922821 -0.07581911 0.03145353 0.020426337
-0.08707966 -0.19560364 -0.030717636 0.060436174 0.007965423 0.12161448 0.14139152 -0.026251683
-0.16531412 0.0154096065 0.015713252 -0.058495924 -0.121892594 -0.11736022 0.13946356 0.0047884965
-0.047749743 -0.1486516 0.009989245 -0.050586537 -0.026965573 -0.04410339 0.15242736 0.09675461
-0.13089165 -0.07951836 -0.035037253 -0.043051336 -0.02180856 0.19523795 0.16995749 0.051215965
0.13058789 0.07515454 -0.073879145 0.27658245 -0.0065570837 -0.25270286 -0.1067523 0.17861319
0.097933225 0.13224386 0.1828391 0.061243467 0.08656377 0.10428454 0.05392639 -0.024759183
0.056473054 -0.055507466 0.027304893 -0.038974978 0.05671452 -0.014768316 -0.20535646 0.059559524
-0.16165811 -0.19060624 -0.019643597 0.0075674052 0.21432468 0.2925781 0.061587803 0.0926465
0.096182026 -0.05532587 -0.04410665 0.06675379 -0.1882619 -0.28686857 -0.08139454 0.04244035
-0.19939208 -0.039656777 0.061707985 0.10074121 -0.12057839 0.1619097 0.13869762 0.0043393853
0.0036274293 -0.1571073 -0.12468322 -0.06441044 0.12745646 0.031007832 -0.059098627 -0.011434627
-0.08495023 0.093281336 0.0323754 -0.02846401 -0.22961709 -0.11238507 -0.08638129 -0.07005056
-0.04877807 -0.10836379 0.041159615 -0.010709053 0.030626401 -0.14864184 -0.10771099 0.002982325
-0.06302389 -0.190365 -0.14069337 0.076390564 -0.06905256 -0.031878114 0.08856164 0.069674276
0.21814395 0.010236771 -0.116454124 -0.043856107 0.076945715 0.0021084975 0.07369546 -0.026516303
0.032412358 -0.10197859 0.031023571 0.008492574 -0.31089354 -0.20304303 -0.11597368 -0.06216776
-0.14540832 -0.028924761 -0.02936413 0.005004409 -0.14739166 -0.07725432 -0.027666967 0.08156462
-0.19032817 -0.16047108 -0.049187593 0.1440031 -0.082447425 -0.016562946 0.0009393748 0.118322276
-0.009822899 0.017748462 0.12516676 0.06364968 0.047455102 -0.08936662 -0.036388826 0.0795386
-0.14467904 -0.15664026 0.081874065 0.14225253 0.0051832492 -0.15707822 -0.038400315 -0.04952865
-0.04409743 -0.07687277 0.034435514 -0.119896375 -0.066480294 -0.036583047 0.061736938 0.073868744
0.08967829 0.12859222 0.111461915 -0.056417383 -0.115443006 0.035825886 0.16864449 0.094347894
0.37597412 0.0601845 -0.38092545 -0.077717595 0.5429047 0.07770136 0.16467953 -0.044548485
0.31027877 0.22917543 0.3498231 0.19042681 0.0621377 0.14489503 0.37673867 -0.16477321
0.05454068 0.025121694 0.008205949 0.0012641826 -0.06395448 0.045348883 0.08910174 0.04258338
0.09709093 0.012470783 -0.11929353 -0.1654883 -0.09377553 0.06327522 0.078057155 -0.0658884

fc1.bias f4 [50]
00000000: 54eb 0fbd c07d 313d c006 ea3d 4b35 f03d
00000010: bef1 5e3d ddab bb3d 3880 c93d 35eb 50bb
00000020: 1a3f eb3c 965c 2d3e 576a 483d 8a15 a2bc
00000030: 6d58 56bd bfb7 afbc 7de6 88bd ef24 953e
00000040: 1ce5 79bd ecbd 5e3b 14a8 eaba 67b7 2bbc
00000050: 32ed fbbc 2bb8 88bc 6c65 2dbb ce30 043d
00000060: b0ef 9c3c 84a8 dc3c ea0d 9bbc 5d27 23bd
00000070: ff29 0b3d 208f 003e a063 0b3d cd92 943d
00000080: 8fdf 533e 759d 1bbd 77c4 27bd bbd2 a53d
00000090: bf51 f63b 5434 81bd 2626 c43d cf7a 1b3e
000000a0: 427e 11bc 559f a93c 88f0 90bd 2444 103e
000000b0: 962a 2f3d a6b3 223d 5fb0 b13d 9366 be3c
000000c0: 152e 15bd 1470 10bd
-0.035136536 0.043332815 0.11427069 0.11728915 0.054429762 0.0916364 0.09838909 -0.0031878476
0.028716613 0.1692985 0.04892954 -0.019785661 -0.052330423 -0.021449922 -0.06684587 0.2912974
-0.06100951 0.0033987714 -0.0017902874 -0.010480738 -0.030752752 -0.01668938 -0.0026458157 0.032273106
0.01915726 0.026935823 -0.018927533 -0.03983246 0.033975597 0.12554598 0.034030557 0.072545625
0.2069075 -0.03799196 -0.040958848 0.08096834 0.007517069 -0.06308809 0.09577589 0.15183567
-0.0088802 0.020705858 -0.07077128 0.14088494 0.042765222 0.039722107 0.08676218 0.02324227
-0.0364209 -0.035263136

fc2.weight f4 [10, 50]
00000000: a6cf a4be 2867 c43d caa7 663e d5c5 ed3d
00000010: 9d07 cb3d 207d 723e 2005 aa3d 0be9 a13d
00000020: f194 8ebc 2638 4c3e 8c67 a439 5cba 43be
00000030: 200f 873d 6a91 c63d ebef e5bd 1b5a 8d3e
00000040: 14c0 0abe 4d1e f6be 8f03 6e3d e5f9 b93d
00000050: 50b0 14be 4c6f 08be 7881 5ebe 54f4 a1be
00000060: 30c3 f53c e287 babe f05e 21be 1690 c23d
00000070: 18a7 6e3e 3cf1 2b3e 63c5 10be 95a2 4dbe
00000080: eff5 273e c510 64bd c7de 633e ab55 013e
00000090: bec6 59be d214 fd3d cd03 4a3e 8e30 193e
000000a0: 587e 41be da65 06be 9bb2 1abe 5930 c33d
000000b0: 4b6b c93b 7260 3e3e 210d 2a3e 55ad 17bf
000000c0: 1e45 a93d c2f7 bb3d 1c2e b3be 675d febd
000000d0: a266 853e e084 89bd caef f63d 92ad ea3d
000000e0: 7a06 7dbe cfb5 183e b2b0 23bd 509e 0abe
000000f0: fda5 8ebe 4a8f 5abd 4dea ddbd 2638 f1bd
00000100: 41d4 a33d e46c a63e 82c9 dcbe dec9 643e
00000110: 5ccc ab3d 89fc 7bbd f429 c5bd 1acb e73e
00000120: e73e 313e 22ba 963d 9788 d3bd a66c 653e
00000130: 21a0 75be 92bd 5cbc f5bf 90bd 2ad3 83be
00000140: fd18 0abc 9173 233e 6aa5 ffbe d7af cfbd
00000150: 537e 8fbe c016 9d3a 21f9 bfbe f1b8 6abd
00000160: 3ee6 a23e e284 123d 90d3 09bc 9fe0 a4bd
00000170: d1b9 0a3e 24be 363e c8bc 75be f5b2 b43d
00000180: b59c 323d 0fb2 2abd 0cb0 0bbd 46ea c23d
00000190: c677 e3bd f57f b3bd b087 97be f669 c3be
000001a0: 10df 593e 553e 213e ccf9 6abe 65f8 c0bb
000001b0: 5502 20bd 9e3d 59bd ba41 533e e2ee 0a3e
000001c0: 237d 16be d3d6 a43d 8e1d 0cbe 117c 7cbe
000001d0: 2151 2e3d c1ee 723e 178e b8bd e722 11bd
000001e0: 5c69 f0bd a6c1 36be 83e9 353e 9573 34bf
000001f0: 7931 873d b36c a73d 0a4c cebe 79df f53d
00000200: 0218 74bb b125 a43d 7b01 fcbd 1571 493e
00000210: d123 3b3e daa6 993d 557f 183e be61 713e
00000220: cb9e f4bc 5404 89bd 9b6f e33e d136 a3bb
00000230: 3f02 87be 77b8 45be bea2 1c3e b43f 7cbe
00000240: 71a6 75bc 8769 43be 7b9a 473e a02e 943d
00000250: c0fb c13d ab04 053e b8ec 593e 2a05 1e3e
00000260: 3f1b f4bd 5f23 6fbe 7660 0b3d 3e6d 47bc
00000270: 71da 89ba 1dac ac3a ce44 d5bb ceb8 883d
00000280: b7d3 7abe 255b 123d 8e0a 2a3d adce f63b
00000290: 0b4b dabd 31c8 f5be d3a4 0e3e 365b 92be
000002a0: 720c 9abd 443b 1d3c ab23 be3c a7cf 44be
000002b0: 9189 f53d ebcf 673e e5c9 e6bd e8e3 683e
000002c0: 395f 13be a0cb d43d f8f3 263e e920 48be
000002d0: 374b 32bd 93ba 69bc 67f4 34be 3738 493d
000002e0: 6e45 293e e680 f8bd 5e4d 47be b97e 753d
000002f0: b0f4 9abe cb55 6b3e 516e ab3e 7003 9abe
00000300: a021 d6bd cdd2 493e c3ed 333e 85e6 16be
00000310: 9b08 36bd 2ae3 15be e30c d0bd 0079 ba3c
00000320: 7617 233e 8c75 123d 8b88 483e 1093 f63d
00000330: de9c f8be ef13 9b3d e58c 7ebe 9ca4 b63c
00000340: b078 13bd ae56 babe ca55 95be 1c3b 0d3e
00000350: b544 5c3c 1007 383d f82d 48bd ef00 593d
00000360: a289 fe3d 6ff9 683d d8c2 fbbd d179 03bd
00000370: 1777 e6bd 3d93 d5bd 8831 263e ade0 01bd
00000380: cc78 f1ba 9ec3 87be 5f0b 683e 4f1e 8abd
00000390: 98e7 053c 2697 2bbb 0617 1ebe 6096 8a3d
000003a0: a9d7 21bf 2163 ba3c d014 f5bd 5891 013e
000003b0: 7bc0 8d3b 2236 ea3d 6a51 c8be 00cd c6be
000003c0: 86d9 883d 3e33 7d3e 655d b4bd ae48 b4bd
000003d0: d0c0 42be 176b a03d 7606 483e 9238 263e
000003e0: 74c9 a53d 0609 3c3d cf65 173d 8b1c 41be
000003f0: e563 dc3d 6aa6 e23c 7570 073e 1a47 5abe
-0.32189673 0.09589988 0.22524944 0.11609999 0.099135615 0.23680544 0.08301759 0.079057775
-0.017405005 0.19943294 0.00031357666 -0.19114059 0.06594682 0.09695704 -0.11227401 0.27607808
-0.13549834 -0.48069993 0.058108862 0.09080867 -0.14520383 -0.13323706 -0.21729076 -0.3163172
0.0300003 -0.36431795 -0.15758872 0.095001385 0.23305929 0.16791242 -0.14137797 -0.20081551
0.1640241 -0.055680055 0.22252952 0.12630336 -0.2126722 0.12357487 0.19728012 0.14959928
-0.18895853 -0.13124791 -0.15107195 0.09530706 0.0061468235 0.18591478 0.16606571 -0.5924886
0.08265136 0.091781154 -0.34996116 -0.12420159 0.26054865 -0.06714797 0.12057455 0.11458887
-0.24709502 0.14913104 -0.03996343 -0.13536954 -0.27861014 -0.053359307 -0.10835705 -0.117782876
0.079994686 0.32504952 -0.43122488 0.22342631 0.08388588 -0.061520133 -0.096271425 0.45272142
0.17309152 0.07359721 -0.10328787 0.22404727 -0.23986866 -0.013472931 -0.07067863 -0.25747043
-0.008428809 0.15962054 -0.49930888 -0.10140961 -0.28026065 0.001198493 -0.37494758 -0.05730528
0.31816286 0.03577126 -0.008412257 -0.080506556 0.13547446 0.1784597 -0.23997796 0.08823196
0.04360648 -0.041673716 -0.03410344 0.0951734 -0.11106829 -0.0876464 -0.2959571 -0.3816678
0.21276498 0.15746434 -0.22946852 -0.005888986 -0.039064724 -0.05303728 0.20630541 0.13567689
-0.14696173 0.08048787 -0.13683149 -0.24656703 0.04255784 0.2372389 -0.090114765 -0.035433676
-0.11738846 -0.17847309 0.17764859 -0.70488864 0.06601233 0.081750296 -0.40292388 0.12005515
-0.0037245755 0.080150016 -0.1230497 0.19672044 0.18275382 0.075025275 0.14892323 0.23572442
-0.029860875 -0.06690279 0.44421086 -0.0049809 -0.263689 -0.19308649 0.15296456 -0.24633676
-0.014993296 -0.19083224 0.19492523 0.072354555 0.094718456 0.12990062 0.21281707 0.15431657
-0.11919259 -0.23353337 0.03402754 -0.012172041 -0.0010517371 0.0013173852 -0.0065084463 0.06675874
-0.24494825 0.035731453 0.041513972 0.007531962 -0.106588446 -0.48004296 0.13930063 -0.28585213
-0.07521905 0.00959665 0.023210367 -0.19219838 0.11989129 0.22637908 -0.11268977 0.2274319
-0.14391793 0.10390401 0.16304004 -0.19543804 -0.04352876 -0.014265674 -0.17671357 0.049125876
0.16530392 -0.121339604 -0.19463107 0.059935305 -0.30264807 0.22981946 0.33482602 -0.30080748
-0.10455632 0.1970932 0.17571168 -0.14736374 -0.0444418 -0.14637437 -0.10158708 0.022762775
0.15926918 0.035756633 0.19583337 0.12039769 -0.4855718 0.075721614 -0.24858434 0.022295289
-0.03600377 -0.36394256 -0.29167014 0.1379208 0.013444115 0.04492861 -0.048871964 0.052979406
0.12428595 0.056878503 -0.12293023 -0.032098595 -0.11253183 -0.10428474 0.16229832 -0.03170841
-0.0018422841 -0.26516432 0.22660588 -0.06744062 0.008172892 -0.002618262 -0.1543847 0.06766963
-0.63219696 0.022752346 -0.1196686 0.126531 0.004325924 0.11436106 -0.39124614 -0.38828278
0.06682114 0.24726579 -0.08806876 -0.08802925 -0.19018865 0.07832926 0.19533715 0.16232517
0.08095065 0.045907043 0.036962327 -0.18858545 0.10761241 0.027667243 0.13226493 -0.21316186

fc2.bias f4 [10]
00000000: 335e cd3d beab 7cbd 3985 95bd f9a0 f23c
00000010: c3bf c2ba 5396 16bd 2a88 373e 430c 13be
00000020: 522c 59bc bd14 b7bd
0.10027733 -0.061687224 -0.07300801 0.029617773 -0.0014858175 -0.036764454 0.17923036 -0.14360146
-0.013255196 -0.089395024
