adversarial-ai-example-notebooks/models/mnist_cnn.pth (torch, 90328 bytes, 8 tensors)

conv1.weight f4 [10, 1, 5, 5]
00000000: c63a 843e da54 b23e 2cf9 debd cc7a cfbd
00000010: 0ba2 89be 7489 273e 97d3 903e dadd e93d
00000020: cf8a a13d c76c 4bbe 852e d9bd d1a4 a83c
00000030: b76a e63e 171b c53e fc79 4d3e 1a8c 3bbe
00000040: 503f 9cbd 199d 3f3e 32dc 04bd 1095 8e3e
00000050: fc26 b4be f39b 72be e690 1fbe 6796 da3d
00000060: a805 59bd 3303 a03e 2a5b ae3e b640 543e
00000070: 1751 15bd 347b 833e c269 493e 035e b63e
00000080: f1fe 0d3e 578d c13d f293 9d3e e465 b93d
00000090: b38d 4dbe 9432 503d ee96 9dbd 3dab 82bd
000000a0: bf52 abbe 8c58 6fbe 7d7f a4be 5ad7 39be
000000b0: b8bf 9fbe 784d 23be f9f5 82be 663d 91be
000000c0: e01b 08be dd67 5dbe ad75 493e 62a1 95bd
000000d0: 805a cbbc 874f 413e a01b b23b e5af 3fbd
000000e0: d425 183e 67cb 783e e594 893e 2096 873e
000000f0: 240d 263e 615b 813e 78e1 163d 587d 723e
00000100: ca5a 4c3e eb00 273e 57dd 713e 3f1e a7bd
00000110: d568 a23d bca0 8a3e 3675 e53d 0d58 1b3e
00000120: 899d 87be 5820 27be 04c8 0d3e 58dd 46be
00000130: 4bd6 34be 64dd 2dbd f199 263e bf1f a83e
00000140: b2d7 12be 97fa 48be f393 0d3e b9ac 433e
00000150: cdbe 7a3e 96b1 a5be d7ea 863d 39e4 093e
00000160: 387a ba3d d103 7c3e 16cc 15be f9b8 0a3e
00000170: e55e 163e 3c4f 8f3e 8214 3d3d 8e91 e5bd
00000180: 18ed fa3c db79 89bd 38ff 8c3e b254 2a3e
00000190: 6ed0 33bd 2e93 babb 03a8 60be 77db 8ebe
000001a0: 9114 b4be 0989 1c3d ca47 a0bd 275a 2a3d
000001b0: 270c acbe af50 d9be d7ee 853e d0d9 71bd
000001c0: 4c93 15be d637 213d 9e10 6c3d 50e8 fe3d
000001d0: 6cd0 c03d 37b9 cb3e 7b95 403e c4f4 b53e
000001e0: ae7c c03d 7af4 c83e c636 b93e e52e 333e
000001f0: 8e74 913e ca35 a23e 97e2 793e 3cac 823e
00000200: 4b54 ba3e 3bbd 873e 2f0b 55bd abc2 b63d
00000210: 07b2 9b3e bbd1 683e b23d 223e 9d30 12be
00000220: d560 d0be c641 81be e8a0 86be 66f9 9e3d
00000230: f8c6 e5be 617a 0abf 8d69 f8be 010a 07be
00000240: b6bf 2bbe 537a 983d e1fa a93e 26b8 38bc
00000250: bff6 f2bd e0a7 15be 5047 443d 477e 7a3e
00000260: 022a e2bb f354 953d 498b 703d 74fc 9dbe
00000270: e607 0cbe a3fc db3d a908 c03e f3c0 ba3e
00000280: 16e0 a9be 21fa 05be 0aef 9b3e 5c40 fc3e
00000290: 785a 18bd 78a0 ebbd cfa6 413e f72f 903e
000002a0: 618e cc3e 94eb 113e 1090 333d 5abc 3c3e
000002b0: dbef 1c3e 0676 223e 4872 ccbd a6c2 b33e
000002c0: 61bf 2e3e 6f49 cebd 63b9 66be d6e5 bbbe
000002d0: 563c 533e 0b95 263e 5bed 84bd 0e77 14bf
000002e0: 60f1 c4bd 0638 ce3e d632 903c a435 92be
000002f0: 1376 45bf ba02 e4bc db50 b93e d4d4 173d
00000300: dcac 13bf a349 00bf c9d0 8b3e f6c7 b83e
00000310: c44a 72be 46d5 babe e216 94be 2f74 603e
00000320: a2d9 033e 9464 983e 90a5 933e e15d 3f3e
00000330: 415d 9f3e 551b b23e d0e2 e53e 870b 523e
00000340: 5afe fb3d d50d a93d 033d c13e aeeb 933e
00000350: da0c 1ebe c565 e8bd 21d1 84be 16ae 523e
00000360: 49ff 3bbe a63c fdbe a170 05bf 1656 adbe
00000370: 781e c1bb da09 d3be 1c16 96be 3d63 d8bc
00000380: cab9 d83d c0e1 b33d 46dd ea3d eef1 143e
00000390: 72b0 ff3d 827c 843e 7f6b 0f3e 88c4 c63e
000003a0: b22a 5b3e 787d 9b3e 01f3 6b3e 1fc4 473b
000003b0: 208a 873e 5bef fb3d 5339 ac3d c6c0 e33d
000003c0: d3fd 90be df5e ccbe 5380 dfbd 7184 24be
000003d0: 295d 523e 0925 4cbe f28a 05bf db1c e1be
000003e0: ac83 9fbe 82f1 ebbd
0.2582609 0.34830362 -0.108873695 -0.101308435 -0.2688144 0.16361028 0.2828643 0.11419268
0.07887804 -0.19865714 -0.10604576 0.020586403 0.45003292 0.3849723 0.20066065 -0.18315163
-0.076292634 0.18712272 -0.032436557 0.278481 -0.35185993 -0.23692302 -0.15582618 0.10673218
-0.05298391 0.3125244 0.34053928 0.2072781 -0.036454286 0.25679934 0.1966925 0.356186
0.13866784 0.094507866 0.30776936 0.09052637 -0.20073585 0.050829485 -0.07694803 -0.06380317
-0.33461568 -0.23373622 -0.32128516 -0.18148556 -0.31200957 -0.1594752 -0.25578287 -0.28367156
-0.13291883 -0.21621652 0.19673796 -0.07306172 -0.024823427 0.18877994 0.005435422 -0.046798605
0.1485818 0.24296342 0.2687141 0.26481724 0.1621595 0.2526503 0.036836118 0.23680627
0.19956508 0.16308944 0.2361959 -0.08160066 0.079301514 0.27075756 0.11203997 0.15170307
-0.26487377 -0.16320932 0.13845831 -0.19420373 -0.17659871 -0.042447463 0.16269661 0.3283672
-0.14340094 -0.19626842 0.1382597 0.19108857 0.24486847 -0.3236205 0.06587761 0.13465966
0.091053426 0.24610831 -0.14628634 0.13547124 0.14684637 0.2799014 0.046162136 -0.11209403
0.030630633 -0.06712695 0.27538466 0.16633871 -0.043899946 -0.0056938147 -0.21939091 -0.27901813
-0.3517194 0.038216624 -0.07826193 0.041589882 -0.33603022 -0.4244437 0.26158783 -0.059045613
-0.1460697 0.03935989 0.057633035 0.12446654 0.09414753 0.39789745 0.18807022 0.35538304
0.09398781 0.3924902 0.361746 0.17498358 0.28409237 0.31681663 0.24402843 0.2552203
0.36392435 0.2651156 -0.05201262 0.08923849 0.30409262 0.22736256 0.15843847 -0.14276357
-0.40698877 -0.25245494 -0.26294637 0.07762413 -0.44878364 -0.54092985 -0.4851803 -0.1318741
-0.1677235 0.074452065 0.33199218 -0.011274373 -0.11863469 -0.1461482 0.04791957 0.24462233
-0.0069019804 0.072915934 0.058726583 -0.3085667 -0.13674888 0.10741546 0.37506607 0.36475334
-0.33178777 -0.13083698 0.3045581 0.49267852 -0.037195653 -0.11505216 0.18911289 0.28161594
0.39952376 0.14250022 0.04383856 0.18431225 0.15325873 0.15865335 -0.09982735 0.35109442
0.17065193 -0.100726 -0.22531657 -0.36698788 0.20628485 0.16267793 -0.064905845 -0.57994163
-0.09616351 0.40277117 0.017602365 -0.2855655 -0.7713329 -0.027833331 0.361945 0.037068203
-0.5768564 -0.5011236 0.27307728 0.36090058 -0.23661333 -0.3649084 -0.28923708 0.2191932
0.12875989 0.29764235 0.28837252 0.18688156 0.31125835 0.34786478 0.44899607 0.2051221
0.12304373 0.082545914 0.3774186 0.28890747 -0.1543459 -0.11347536 -0.25940803 0.20574221
-0.18359102 -0.49460334 -0.52124983 -0.3385474 -0.0058935247 -0.41218454 -0.29313743 -0.026414508
0.105823115 0.08783293 0.11467986 0.14545414 0.12484826 0.25876242 0.1400585 0.38821816
0.21403006 0.30369163 0.23041917 0.0030481888 0.2647257 0.12301513 0.08409371 0.11120753
-0.28318653 -0.3991613 -0.10913148 -0.16066147 0.2054335 -0.19936003 -0.5216514 -0.43967327
-0.31155145 -0.11520673

conv1.bias f4 [10]
00000000: fe20 51bb 0e7d 3c3e 2314 eebc 115c 80bd
00000010: bd86 a7bb 523b 613e a40d cabd 2006 6d3e
00000020: 83d7 b83d fbb9 a83d
-0.0031910534 0.1840708 -0.029062336 -0.0626756 -0.0051124976 0.21995285 -0.09865883 0.23146868
0.090254806 0.08238598

conv2.weight f4 [20, 10, 5, 5]
00000000: 3010 a7bb 1ee4 38bd 322c b0bd 9f94 22bd
00000010: bdb6 07bb 7196 a5bc 1214 08be e64e 89bd
00000020: 83a8 12bd 4c0e 963d c32c 14bd 7ba2 1abe
00000030: 708b f5bd efd0 6e3d 8991 563c 862d a73c
00000040: 41f7 8a3c ff17 8c3d aef3 a43d 627e b13d
00000050: a874 713d 11b1 b1bc aba3 7dbd 809d 7c3d
00000060: 053a 0e3e 331a 133e 498a f13d 65ec 8b3d
00000070: 90c3 a9bd 934c 92bd fc3a 4c3e 0785 9b3d
00000080: 23e3 9dbe fa68 99be 25d5 61bd 5ab9 15bd
00000090: 918c e0bd 8462 53be a00f 56be ad80 80bd
000000a0: b699 693d 536d 3bbd 9fd3 943d 091e 5bbd
000000b0: 4d1e 293d b61f 953d ffec 7c3c bf54 2ebc
000000c0: d51b 0c3d eb9d f83d 5961 7ebc e833 31bd
000000d0: 2667 c2bd 9d2d 7d3d 1b02 ce3d a873 f2bd
000000e0: 65e0 30be dfbf 953d fa31 023e 82d9 343e
000000f0: dd47 1e3c 8317 e83c a1a7 cc3d 6188 9a3b
00000100: 8b1a 503d aae2 85bc 5e00 933d 8d3b 673d
00000110: 0d97 573d b315 a73c 7629 fc3c 3aab f0bc
00000120: a54e a5bc 11d4 403d 0988 513c add6 5abd
00000130: 4cca b6bd 0538 19bd 786a af3c a666 01bd
00000140: a437 27be 7231 d8bd 4f9e a33d b1c3 b93d
00000150: f559 f7bc 1d27 743c 7762 ae3d 51ff 543d
00000160: 2855 023e 6271 adbd 7f2b f83d e7e7 3e3d
00000170: 3ad4 fd3c 82f9 d83d 7d76 80bc 4118 8c3d
00000180: 1ed5 abbc 7b2c f2bd 5e6a aeba 86ec 40be
00000190: 3e3b 9ebd bc45 44be 5ee8 44be c296 213c
000001a0: e45f 4d3e 6da8 c6bc b16b d03c 97b2 db3d
000001b0: 4bb7 903d d493 863d 2044 9e3d 2024 00bc
000001c0: 7c07 f0bd 150b a6bc 47fa deba a8f0 943d
000001d0: 0e08 4cbc b2d2 d0bc 499e dd3c f6cf 273e
000001e0: bd11 3fbd 6c8b 1bbe 270c 08be e9b6 b1bd
000001f0: adbc bf3c 5dc3 5e3d 3f94 fd3c 0425 c43d
00000200: c5e9 74bd af64 4abe ad3e 3a3e 94b5 c0bd
00000210: f8bc b3be 0f71 bfbe c554 e2bd e58f b6bd
00000220: 506c 52be 6789 a6be 0842 81be 0fe5 f9bd
00000230: c3ae 5fbc 341c 0dbe ad20 5ebc b723 983d
00000240: 7cbc 8dbc e20e 143c 8efb 64bd be93 c93c
00000250: 4674 5d3e c492 723e b1ec 8e3c 9f45 02be
00000260: 0750 90bd d8e8 d23d a12c ba3d 10e4 01be
00000270: 0471 12bc 0a13 ff3d 8296 5e3e 9daa b43d
00000280: 3b8d 43bd 97be 8a3c d124 9d3d 7c92 9d3d
00000290: af25 60bb 31bb cb3d bca8 22ba d846 033b
000002a0: d204 f8bc 8a10 b8bd c93c 26bd e61d 90bd
000002b0: a977 ecbd 766b a5bd 82ba adbd 654a f53d
000002c0: 5203 2c3e a4e5 0fbc bb45 d4bd 0122 9dbd
000002d0: cc3d 4f3e ce35 acbb fe45 b6bc 665a 21bd
000002e0: 13c1 89bd ed9e f43d aae5 1abe d393 9f3d
000002f0: 2621 2d3d a6dc 75bd 8ce2 d03c bc2a 5abe
00000300: 3d7b 2ebd c5bb a1be edc7 d4bd cb86 7fbe
00000310: b5a3 3fbe ead1 92bd 0716 adbe 9d75 b6bd
00000320: ee0c 443e 277b 5a3e 7e0b 923c 2c7b eebd
00000330: f1f8 83bd 3a50 8f3e d0e3 77bd 6169 4abe
00000340: 574c b3bd 5b6b 053e 069b 57bd d518 4fbe
00000350: be8d f8bd 82f2 59bd 7cd4 fb3d fe46 4dbd
00000360: 888f d5bd 4810 52bd f614 b3bd 02fc e1bc
00000370: 399a 90bd b648 63ba d6e7 9dbc 7a0a 05be
00000380: 9430 203d 54d1 143e 8c47 2b3d 1e89 43bd
00000390: 3fcd a2bd 0f4b 69be 010d 833d dd08 00be
000003a0: 21c8 99be 1777 6bbe ab21 1abe 5508 0bbe
000003b0: 15a3 70be cf84 1ebd 40b1 48bd a44d 04bd
000003c0: 0069 463b ac48 a9bd ae52 5dbc c745 2e3d
000003d0: 0330 423d 93a6 5e3d b277 f3bc fd66 df3c
000003e0: 776e a03d 8f30 043e a77a 9f3a ea70 0dbd
000003f0: 4e89 a1bb b253 323d 6988 0ebd 4ff4 bcbb
-0.0050983652 -0.045139425 -0.086021796 -0.039692517 -0.0020708286 -0.020213338 -0.13288906 -0.06704502
-0.035805237 0.07326946 -0.0361755 -0.15101044 -0.11989486 0.058304723 0.013096222 0.02040745
0.016963603 0.068405144 0.08054291 0.08666684 0.058949143 -0.021690877 -0.061923664 0.06167364
0.1388932 0.14365463 0.11793954 0.06832198 -0.08289254 -0.071435116 0.19944376 0.07593732
-0.30837354 -0.29962903 -0.05513491 -0.03655372 -0.10964311 -0.2064305 -0.20904398 -0.06274543
0.057031356 -0.045758557 0.07266926 -0.05349544 0.041288663 0.07281439 0.015437364 -0.010640322
0.03420623 0.121394955 -0.015526139 -0.043262392 -0.0949233 0.06181108 0.10058995 -0.11838466
-0.172731 0.07311987 0.12714377 0.17661098 0.009660688 0.028331524 0.0999291 0.0047159647
0.050806563 -0.016343433 0.071778044 0.056453276 0.052634288 0.02039609 0.030781489 -0.029378522
-0.020179102 0.047077242 0.012788781 -0.053427387 -0.08925304 -0.03740694 0.021413073 -0.031592034
-0.16329819 -0.10556306 0.07989179 0.09070528 -0.030194262 0.014901903 0.085148744 0.0520013
0.12727797 -0.08468892 0.12117671 0.046607878 0.030984987 0.10594465 -0.0156815 0.068405636
-0.020975646 -0.1182489 -0.0013306846 -0.18840227 -0.07726143 -0.19167227 -0.19229266 0.009862604
0.2005611 -0.024250234 0.025441976 0.10727423 0.0706621 0.06571165 0.077278376 -0.007821113
-0.117201775 -0.020268956 -0.0017011844 0.07272464 -0.012453092 -0.025491092 0.027053015 0.16387925
-0.046647776 -0.15189904 -0.13285886 -0.086774655 0.023405397 0.05438553 0.030954478 0.09577373
-0.059793252 -0.1976497 0.18187971 -0.09409633 -0.3510511 -0.37390944 -0.11051325 -0.089141645
-0.2054913 -0.32526705 -0.2524569 -0.122018926 -0.013652506 -0.1378029 -0.013557595 0.07428687
-0.01730179 0.009036751 -0.055903964 0.024606582 0.21626386 0.23688799 0.017446848 -0.12721871
-0.07046514 0.10298318 0.090905435 -0.12684655 -0.008938078 0.12454803 0.21737102 0.088216044
-0.04774211 0.016936583 0.07673038 0.07693955 -0.0034202149 0.09947813 -0.0006204953 0.002003124
-0.030275736 -0.089875296 -0.040585313 -0.07036953 -0.11546261 -0.08077137 -0.08482839 0.1197708
0.16798142 -0.008782778 -0.103648625 -0.07672501 0.20238417 -0.0052554375 -0.022250172 -0.03939285
-0.06726279 0.11944375 -0.15126672 0.07791867 0.04226794 -0.06002488 0.025498651 -0.21305364
-0.042597998 -0.3158857 -0.10389695 -0.24953763 -0.18714793 -0.07168944 -0.33805868 -0.08909152
0.19145557 0.21336041 0.017827746 -0.11644587 -0.06443966 0.27990896 -0.060519993 -0.19766761
-0.08754795 0.13029234 -0.052638076 -0.20224316 -0.1213641 -0.05320979 0.122963876 -0.05011653
-0.10427767 -0.05128506 -0.08744232 -0.027585987 -0.07060666 -0.00086701976 -0.019275587 -0.12992278
0.039108828 0.14532977 0.04181628 -0.047738187 -0.07949304 -0.22782539 0.06398965 -0.12503381
-0.300355 -0.22994648 -0.15051906 -0.13577397 -0.23499711 -0.038700875 -0.048997164 -0.032300606
0.0030274987 -0.08265814 -0.013508482 0.042547014 0.04740907 0.054358076 -0.029720161 0.027270788
0.078335695 0.12909149 0.001216729 -0.03453151 -0.004929698 0.04353685 -0.03479806 -0.0057664285

conv2.bias f4 [20]
00000000: 7101 a73d b995 553d b178 53bd 339a 253d
00000010: df09 973c 995a a5bc f8a5 8fbd 0e55 253d
00000020: 7d60 923d 499e d03d 85c5 fbbc be4e 82bd
00000030: 89a9 5dbc f9d7 833b 960e 0d3e f776 843d
00000040: d95e e83c 1882 913c 938d b8bb 822e 7ebd
0.08154572 0.05214474 -0.051628772 0.04043026 0.018437324 -0.020184802 -0.07014078 0.040364318
0.0714731 0.101864405 -0.030733833 -0.06362675 -0.01352919 0.0040235487 0.13775095 0.06468003
0.02836554 0.017762229 -0.0056321113 -0.062056072

fc1.weight f4 [50, 320]
00000000: 32d3 49bd 52f9 853b 74ba 0d3d c45b 473e
00000010: 970b 29bb 9b0d f93d fabf 7a3c 546c f33d
00000020: c0fa 483d a5a9 3e3c e86f aa3d 545d 81bd
00000030: dc9e 9ebd dfc5 53bb fad0 0a3d 3096 e8bd
00000040: 7fee 54bd db2e 2dbd e3ab 09be 6263 4c3c
00000050: aa73 d9bc 0c67 46bd cbdd 5eba 09c2 a23b
00000060: d00e dc3c b47a 9a3d c0cc 413d e6a8 73bd
00000070: 047f f8bb c0b4 683d 4e44 863d a3a8 9e3d
00000080: 7944 9cbc f11b a73d c1e6 2b3d 794d abbc
00000090: 53fe 023d d4b0 0c3d a112 ac3d 9c99 083e
000000a0: 9163 203e da83 aa3d b465 dc3d c441 eb3d
000000b0: 30c3 5fbd 5d58 253d 4b71 0c3e 33b8 ea3d
000000c0: 57d4 263c 6c49 1ebd 5b3a 19be 1f59 9fbd
000000d0: 2ff4 093d 55cb 8bbc 68b2 133d 1404 0a3d
000000e0: 3ddc bd3c b1b0 3e3c 47aa 323b c547 d7bb
000000f0: 9cc5 f23d 8788 b1bc 509e eb3c fd45 983d
00000100: cd8e 57be 9f28 57be 40ca d13b 9554 8e3d
00000110: 744f 56be 44fd 37be eb47 2dbe e177 e03d
00000120: bd47 9e3b 5731 343d da41 3f3d 39ab 823d
00000130: 762f 4ebd 14a3 36bc 578e aabc 61ed 663b
00000140: 39ba 9e3d e991 07bd c172 c33c 49b7 2e3d
00000150: 73cb a73c 2f38 18be 6411 19be a3fc 5d3d
00000160: ac38 b4bd 0df9 0e3d d8dd 283d 4045 9e3c
00000170: ab0f b43d 48ce bbbb 8bd4 93bd 8f27 0ebd
00000180: 6e73 5abe 3a49 23be bd66 16bd f63e e23d
00000190: cb3c fd3b c62e 373d 9c72 303d 9ef0 393d
000001a0: d298 9bbd c2d4 7abd 19ed fc3b 72be 633d
000001b0: f3df 6a3d 684f 073d 89c9 97bd f512 a8bd
000001c0: 87b5 84bd 0639 2bbe 56c8 aebe 2b06 9b3d
000001d0: a370 b3bd f721 b4ba 95e4 90bc 1dc8 113e
000001e0: 0e0b 983d 4886 8e3d 60fb b5bd 8b5e d6bd
000001f0: 6a94 61bc 37da 753d 2ab5 0b3d 9e33 a5bd
00000200: bb7b c0bd 5e87 82be 795a 8ebe 6093 5ebd
00000210: 9323 883c 5927 67bd 56e6 c23b ceb0 903d
00000220: 1cb4 ac3c b4b4 2dbd da5f 18be 1d77 b3bd
00000230: c147 443d 2fa7 2cbd 9568 cbbc fbf3 8dbd
00000240: 5add 1b3d f68d 26bd 6d12 f93d 9f9d 853e
00000250: 1196 f83c 086f c03d 6fb8 fabd 30be 2f3d
00000260: a108 56bd 3208 213e 9ba8 843d 97ac a03d
00000270: 5cfe 8d3c 3bb4 803c 7bfc 303e 33d7 bb3d
00000280: b84c 33bc f734 26bd cbc7 343d 0bf3 36bd
00000290: 0216 e33c 20ca 203c 91d1 a33c ae9d f9bb
000002a0: c5bb 323d bec1 83bc 9413 5dbd 01ce 56bd
000002b0: a6ee 353d eb6b 3ebd 1b6e 0e3b d798 08bd
000002c0: 45d7 4fbe 6913 00be d1f6 393e dd03 a83e
000002d0: 6fb0 743d 0f3c b83d d743 993d ca85 783d
000002e0: 8fa7 ae3b 605d 7ebd 0261 77bb 424a ef3c
000002f0: 3772 8b3c 68a6 5cbd 0b37 4dbd 3fce a0be
00000300: 8a8c 9fbd d5da 89be efac d2bd 9083 073e
00000310: b879 e7bd 3fba dcbd 593e 0ebd 7bc2 023e
00000320: 50f1 373d f9ef 8c3c dba7 42bc 09df 003d
00000330: 4709 fbba 470d c23c 1b8b a43d e9fe a63c
00000340: bd2b 463e e02d 673e f56c b23d 7f04 863d
00000350: dda6 ed3c 760e c53d 811c e63d 2f01 94bd
00000360: a204 ce3d 11bb 1b3d e58b 873c 6753 8fbd
00000370: 42e0 2abc abbb 3e3d 85bc 533d 849e 40bd
00000380: f853 7abd 8f80 fbbc ffa2 9f3d d842 e13d
00000390: 513c 3cbc ecfe c5bc 9bae 0cbd 1bb8 303d
000003a0: 0b11 8bbd 9574 03bd 856c 4c3d b23c a63d
000003b0: 3550 cb3c 142f 88bd dad5 c23d 3f03 83bc
000003c0: 859f e1bc 452b 923d 90ac 3f3e 40bc 353e
000003d0: 855a fd3c d2be 223e e76f 263e 3f00 463d
000003e0: 37c2 e33d 639e 193e e5ef 063d b676 f7b9
000003f0: a6dd d73d 0343 b53d f87c b9bc 58ca aebd
-0.049273677 0.004088559 0.034601644 0.194686 -0.0025794262 0.12160798 0.01530456 0.11885896
0.04906726 0.011637126 0.08322126 -0.06316629 -0.07745144 -0.0032313985 0.0338907 -0.11356771
-0.05198526 -0.042281013 -0.13444476 0.012474867 -0.02654441 -0.048438117 -0.00085016777 0.0049669784
0.026862532 0.07542935 0.047314405 -0.059487246 -0.007583501 0.056813 0.06555997 0.07747009
-0.019075619 0.08159626 0.04196811 -0.020910965 0.031980824 0.034348324 0.08401991 0.13339847
0.15662982 0.0832593 0.10761586 0.11487153 -0.054629505 0.040367473 0.13715093 0.114609145
0.010182462 -0.03864424 -0.14963667 -0.077806704 0.033680137 -0.01706473 0.036058813 0.033695295
0.023176307 0.011638806 0.0027262138 -0.006569835 0.11854097 -0.021671547 0.028762013 0.07435224
-0.21050568 -0.2101159 0.006402284 0.069497265 -0.20928746 -0.17967707 -0.16921966 0.10960365
0.004830329 0.043992367 0.04669366 0.063803144 -0.05033823 -0.011147279 -0.020819826 0.0035236704
0.07750363 -0.033098135 0.02385843 0.042655263 0.020482754 -0.14865182 -0.1494804 0.05419601
-0.08799872 0.034905482 0.04122719 0.01932013 0.08792051 -0.0057313778 -0.07218274 -0.034705695
-0.21333095 -0.15945902 -0.036719073 0.11047165 0.0077281944 0.04472234 0.04307805 0.045395486
-0.075975075 -0.061238058 0.007718694 0.055601545 0.05734248 0.033034712 -0.07411487 -0.08206741
-0.06479936 -0.16720971 -0.3413722 0.07569536 -0.08761718 -0.0013743032 -0.017687121 0.14236493
0.074239835 0.06959206 -0.088858366 -0.104672514 -0.013768295 0.06002256 0.03410832 -0.08066486
-0.093986 -0.25493902 -0.278034 -0.054339767 0.016618526 -0.05643401 0.0059478683 0.07064973
0.021081977 -0.04240866 -0.14880314 -0.087629534 0.047919992 -0.042151626 -0.024830142 -0.06931301
0.038052894 -0.04066273 0.121617176 0.26096818 0.030344995 0.093961775 -0.12242209 0.042905986
-0.052254323 0.15725783 0.064774714 0.07845419 0.017333202 0.01571094 0.17283814 0.09171905
-0.010943584 -0.040577855 0.04413585 -0.044665378 0.027720455 0.009813815 0.01999739 -0.007617674
0.043636102 -0.016083594 -0.05397375 -0.052442554 0.044417046 -0.046489637 0.0021733108 -0.033348884
-0.20296963 -0.12507404 0.18160559 0.32815447 0.059738573 0.0899583 0.074836425 0.060674466
0.005330033 -0.062100768 -0.003774703 0.029210214 0.017022235 -0.053869635 -0.05010132 -0.31407353
-0.077904776 -0.26924768 -0.10286891 0.13233781 -0.11302513 -0.10777711 -0.034727428 0.12769501
0.044907868 0.017204272 -0.01188084 0.031462703 -0.0019152545 0.023687972 0.08034345 0.020385223
0.19352622 0.22576094 0.08712188 0.06543826 0.02901023 0.09621899 0.112359054 -0.07226788
0.100594774 0.038020197 0.0165462 -0.069983296 -0.010429444 0.046565693 0.051693458 -0.047026172
-0.061115235 -0.03070095 0.07794761 0.109990776 -0.01148899 -0.024169408 -0.034346204 0.043144327
-0.0679036 -0.032093603 0.04990818 0.081170455 0.02481852 -0.066496044 0.09513445 -0.015992759
-0.027541885 0.07137159 0.18718171 0.17747593 0.030926952 0.15893105 0.16253625 0.04834008
0.11121028 0.15001826 0.032943625 -0.00047199958 0.10540323 0.08850672 -0.022642598 -0.08534688

fc1.bias f4 [50]
00000000: dead 013d 68be c6b9 869a e1bc 58d8 88bd
00000010: 03db 443d a9df 7b3b 4a76 a63c 757a 72bd
00000020: b2e6 223d fb1e 973c 9314 cabb aa02 8e3c
00000030: a42a 173e 3b2a 81bd b83f 39bd 912f a13c
00000040: 53ba 1fbc 1c77 0f3d dd6d 563d ae03 86bd
00000050: ea34 fb3d 933b 9ebd 5420 43bd 3476 0c3e
00000060: 5e1f 5fbd 039a 193d 07cd 2d3e ebce 953d
00000070: 9875 3b3d fc39 f23c d1d9 163d 4071 77bd
00000080: a868 e73d f510 973d 7d0d 313e 4054 e7bc
00000090: 13dd 1dbd 60b0 a3bd f2f9 413c c7c6 14ba
000000a0: 06f1 963c fe1b 01bd c457 c93d 2e5d a3bd
000000b0: 5ce6 97bd f6b0 48bd 2a75 b63b 4a99 823c
000000c0: 5319 b83d d4ca 81bd
0.031659953 -0.00037907367 -0.027539503 -0.06681889 0.04806043 0.0038432872 0.020320076 -0.059198815
0.03977079 0.01844739 -0.0061670034 0.017335255 0.1476236 -0.06306883 -0.045226783 0.019676002
-0.009749013 0.0350257 0.052350868 -0.065436706 0.12265952 -0.07726207 -0.047638252 0.13716966
-0.054473273 0.037500393 0.16972743 0.07314857 0.045766443 0.029568665 0.03682882 -0.060410738
0.112992585 0.07376281 0.17290302 -0.028238416 -0.03854091 -0.07992625 0.011839377 -0.0005675372
0.018425476 -0.031520836 0.09831193 -0.07976757 -0.074169844 -0.048996888 0.0055681663 0.015942235
0.08989205 -0.063375145

fc2.weight f4 [10, 50]
00000000: 7abf a8bd 0d9b 023e 0b4d 1b3e d200 e73d
00000010: bd3e aabd c580 9c3d 470f 3a3d fbdb b8bd
00000020: b86d bf3d 67b8 bd3d 740a 41be fac7 643d
00000030: 1b11 e53d deda 29bd 94d8 b8bc 3253 5cbd
00000040: 3717 0cbd dc56 dc3d 642c fd3d 86c2 cb3d
00000050: 66cc 02be 08cb 1e3e 3d3b 02be a66e c73d
00000060: 8bde 4bbd 3ab7 413a 7264 243e 37bc 81be
00000070: 4600 5cbe e55a 2dbd a98b 3bbd 2cff 74bd
00000080: be74 1fbe 4ac0 92be 8216 603e 13d4 04be
00000090: 8516 9a39 2dd8 d53d 4ccd 91bd e5e2 ebbd
000000a0: f281 67be 7d53 d8bd 397f 4f3d b15c 54bd
000000b0: c213 eabd 488f 05bd ae2f 3b3c 04c7 063d
000000c0: c5f1 7fbe 115d d9bd 3413 3e3e 5eb9 83be
000000d0: 7b55 2ebe 2933 d73d f8c0 91be f093 493e
000000e0: cbee bdbd 9bfa 813c f6e2 45be c6e3 da3d
000000f0: 6c17 3c3e ab97 00be f683 263d f88d 673c
00000100: 02cf 003e c51b 9abd 063b 5bbc 44d0 2d3e
00000110: e8f0 9bbe 0757 bebd d1ff 203e 6d22 263c
00000120: baa0 51bc 3f5f 033e 8b33 413d 2b31 9b3c
00000130: 04de dabd 7da7 9abc c77a 1ebe 149a 98bd
00000140: 1c23 e5bd 6d52 87bd 58ec d5bd 001a 873d
00000150: f2a0 c8bb 0e3a 07be 9289 e2bd fbd9 9e3d
00000160: df28 963d 7361 d23d 473d 3f3e 7e23 c53d
00000170: ce88 d63d 083b 483e 7ae6 4ebe cf71 e53d
00000180: e18e af3d 9b5e 5dbb eaf6 0cbe 9d6f b6be
00000190: 47e6 79bd 6b2d 9f3d f604 27be 50c3 2b3e
000001a0: d806 debc ea8a 27bd 5f5c 9b3d e140 a6bd
000001b0: 7e1a bbbd 027b a6bd 153f 123e c78a 283d
000001c0: aacf a1bd cdfd 803e 153d 4b3d ebd5 b83d
000001d0: 8a40 c9bd 5f0c aabe da10 17bd 6b83 1a3e
000001e0: e756 1b3e a33e 18bd 09d0 c53d d261 6fbe
000001f0: cbb9 80bd c240 80bb f8a1 cbbd 7ef3 8d3d
00000200: c206 49be 5f1c 69bd fd3f 83be 91f8 be3d
00000210: 17d1 393e 1889 9abe 364b 153e 7b4c 373d
00000220: d8f8 d33d 6676 d4bd d174 50bd d469 cf3d
00000230: a6ec 12be d84f e3bd 2613 df3b 9add e13d
00000240: c61b ed3b 9625 e03d a6c5 6dbc a665 263d
00000250: be4d 61bb e75c 15bd 1eca 7fbe cabc 063e
00000260: 5f89 76be c564 2c3d e240 8d3d 1e79 ecbd
00000270: 09b1 6ebd 274b 813d 93a1 583e ef92 e33d
00000280: 0494 31bd 121e 48be d860 10bd 8e81 acbd
00000290: 5825 4ebe e5f2 3ebd 7591 f23d ad89 0c3d
000002a0: 8152 b6bd b9c1 333e 51a4 93bc f1ac 893d
000002b0: cbe3 03be 9759 56be 6b61 8c3c bf04 dbbd
000002c0: c1dc 73be cb59 3a3e 4578 e13d fd93 0fbe
000002d0: 2a5a 05be ceda e4bd 52d3 8fbd 9a2e 8a3d
000002e0: 755b afbd c67d d73c a4cc 54be 3430 2f3e
000002f0: 9705 5abe 8948 95bd d6d3 dc3d 51cb 423e
00000300: 6642 d7ba 7413 e8bd 0099 37be fddb d4bd
00000310: 3b92 743d c785 033e 9d93 323d 2bfd 1c3b
00000320: c39a 303e 7da1 6ebe 9771 8b3d aaba b33c
00000330: 2cd0 6f3e 5057 fdbd 00e9 bfbd 031b aebd
00000340: d120 df3d 0311 a4bd b33b f33d 2696 1b3e
00000350: 47ab 453d 735e efbe 794b 1d3e 1259 e9bd
00000360: 65cb f8bc fa1e 20be e8d1 17be 1ed7 003b
00000370: db43 093d e8a7 e03d 50a2 873d cf56 d83d
00000380: 9eb0 0a3e fe2a bc3d 18d4 993c a28e a43d
00000390: a8a7 133d e03e 3bbd f79d 293e f971 083d
000003a0: f457 62be 9a18 09bd c46f 0bbe b35e 3dbd
000003b0: d4c2 f3bd d880 92be c653 52be 63ab 05be
000003c0: 852c 9abe 6f72 37be 5743 2ebe e02c 333e
000003d0: c51a 27be 90a8 f4bd 6422 e2bd cade 0f3e
000003e0: 5a5a cb3d 1bb5 833d 01db f93d 2546 debd
000003f0: bea7 183e 921d 553d bff6 4fbd 2d5e 463d
-0.08239646 0.1275446 0.15166108 0.11279453 -0.08312748 0.07641748 0.045424726 -0.09026333
0.09347099 0.092636876 -0.18851644 0.055854775 0.11184903 -0.041468494 -0.02256421 -0.05379028
-0.034201827 0.107587546 0.123619825 0.09949212 -0.12773284 0.15507138 -0.1271791 0.097379014
-0.04977278 0.00073896686 0.16053942 -0.2533891 -0.2148448 -0.042323012 -0.045787487 -0.059813663
-0.15571877 -0.2866233 0.21883586 -0.12971525 0.00029389947 0.10441623 -0.071192354 -0.11517886
-0.22608164 -0.10562799 0.05065844 -0.05184621 -0.1142955 -0.032607347 0.011424942 0.03290464
-0.24994572 -0.10613454 0.18562013 -0.2572736 -0.17024796 0.10507805 -0.28467536 0.1968534
-0.09274062 0.015866568 -0.1932486 0.106879756 0.1836831 -0.12557857 0.04065319 0.014132969
0.12578967 -0.07524828 -0.0133807715 0.16973978 -0.30457234 -0.09293943 0.15722586 0.010140044
-0.012794668 0.12829302 0.047168296 0.018944344 -0.10686877 -0.018878693 -0.15476523 -0.07451263
-0.11188337 -0.06607518 -0.104454696 0.06596756 -0.006122702 -0.1320574 -0.11061396 0.0775642
0.07332014 0.10272493 0.18675719 0.0962591 0.10475312 0.19553769 -0.20205107 0.11203348
0.08572174 -0.0033778313 -0.13766065 -0.3563203 -0.061010625 0.07772335 -0.16310486 0.16773725
-0.027102873 -0.040903963 0.07585978 -0.081178434 -0.09135912 -0.08128931 0.14281876 0.041147973
-0.07900937 0.25193635 0.0496188 0.090251766 -0.09826763 -0.33212563 -0.036881305 0.15089194
0.1516987 -0.03716911 0.0965882 -0.23377159 -0.06285437 -0.0039139697 -0.099430025 0.06931208
-0.19631484 -0.056911822 -0.25634757 0.09324754 0.18146168 -0.3018272 0.14579472 0.04475067
0.103501976 -0.10374145 -0.050892655 0.10127607 -0.14348087 -0.11099213 0.0068077026 0.11028595
0.007235977 0.10944669 -0.014512455 0.040624283 -0.0034378613 -0.03646555 -0.24979445 0.13157955
-0.2407584 0.04208829 0.06897141 -0.11546539 -0.058274303 0.06313162 0.21155386 0.1111201
-0.04335405 -0.19542721 -0.035248607 -0.08423148 -0.20131433 -0.04661836 0.1184415 0.034310985
-0.08902455 0.17554368 -0.018022688 0.06722439 -0.12879865 -0.20932613 0.017136296 -0.106942646
-0.2381468 0.18198316 0.11009268 -0.14021297 -0.13022676 -0.11174546 -0.07022728 0.0674717
-0.08562366 0.02630509 -0.20781189 0.17108232 -0.21291195 -0.072892256 0.10782592 0.19022872
-0.0016422987 -0.113318354 -0.17929459 -0.10393522 0.05970977 0.12844001 0.043597806 0.002395461
0.17246537 -0.2330379 0.06808775 0.021939594 0.23419255 -0.12370169 -0.09370613 -0.08501246
0.10894931 -0.08011057 0.11876621 0.15193996 0.048259046 -0.46751747 0.15360822 -0.11393942
-0.030370424 -0.15636817 -0.14826167 0.001965947 0.033511978 0.109695256 0.066227555 0.105634324
0.13543937 0.091878876 0.018777892 0.080350175 0.03604856 -0.04571426 0.16564165 0.033311818
-0.22103864 -0.033470728 -0.13616854 -0.04623289 -0.11902395 -0.28613925 -0.2053977 -0.1305366
-0.3011209 -0.17914747 -0.17017876 0.17497587 -0.16318806 -0.11946213 -0.11041716 0.14049831
0.099293426 0.064310275 0.12199975 -0.10853223 0.14907739 0.052030154 -0.050772425 0.048429657

fc2.bias f4 [10]
00000000: af78 bbbd be00 18be 0250 c03d abfb cbbd
00000010: eebb 58bd a384 c0bc 2ab8 74bd d0aa 2cbe
00000020: dec8 d73d 9a8c fb3d
-0.09153878 -0.14844033 0.0939026 -0.09960111 -0.0529136 -0.023500746 -0.059745945 -0.16862035
0.10536359 0.12282677
